test_models/conv_mnitst_model/custom_conv_mnit_model.tflite (tflite, 141808 bytes, 5 tensors)

sequential/conv2d_1/Conv2D f4 [64]
000000 00 00 00 00 00 00 00 00 00 00 00 00 00 00 00 00
       0.0 0.0 0.0 0.0
000010 00 00 00 00 00 00 00 00 00 00 00 00 00 00 00 00
       0.0 0.0 0.0 0.0
000020 00 00 00 00 00 00 00 00 00 00 00 00 00 00 00 00
       0.0 0.0 0.0 0.0
000030 00 00 00 00 00 00 00 00 00 00 00 00 00 00 00 00
       0.0 0.0 0.0 0.0
000040 00 00 00 00 00 00 00 00 00 00 00 00 00 00 00 00
       0.0 0.0 0.0 0.0
000050 00 00 00 00 00 00 00 00 00 00 00 00 00 00 00 00
       0.0 0.0 0.0 0.0
000060 00 00 00 00 00 00 00 00 00 00 00 00 00 00 00 00
       0.0 0.0 0.0 0.0
000070 00 00 00 00 00 00 00 00 00 00 00 00 00 00 00 00
       0.0 0.0 0.0 0.0
000080 00 00 00 00 00 00 00 00 00 00 00 00 00 00 00 00
       0.0 0.0 0.0 0.0
000090 00 00 00 00 00 00 00 00 00 00 00 00 00 00 00 00
       0.0 0.0 0.0 0.0
0000a0 00 00 00 00 00 00 00 00 00 00 00 00 00 00 00 00
       0.0 0.0 0.0 0.0
0000b0 00 00 00 00 00 00 00 00 00 00 00 00 00 00 00 00
       0.0 0.0 0.0 0.0
0000c0 00 00 00 00 00 00 00 00 00 00 00 00 00 00 00 00
       0.0 0.0 0.0 0.0
0000d0 00 00 00 00 00 00 00 00 00 00 00 00 00 00 00 00
       0.0 0.0 0.0 0.0
0000e0 00 00 00 00 00 00 00 00 00 00 00 00 00 00 00 00
       0.0 0.0 0.0 0.0
0000f0 00 00 00 00 00 00 00 00 00 00 00 00 00 00 00 00
       0.0 0.0 0.0 0.0

sequential/conv2d/Conv2D f4 [32]
000000 00 00 00 00 00 00 00 00 00 00 00 00 00 00 00 00
       0.0 0.0 0.0 0.0
000010 00 00 00 00 00 00 00 00 00 00 00 00 00 00 00 00
       0.0 0.0 0.0 0.0
000020 00 00 00 00 00 00 00 00 00 00 00 00 00 00 00 00
       0.0 0.0 0.0 0.0
000030 00 00 00 00 00 00 00 00 00 00 00 00 00 00 00 00
       0.0 0.0 0.0 0.0
000040 00 00 00 00 00 00 00 00 00 00 00 00 00 00 00 00
       0.0 0.0 0.0 0.0
000050 00 00 00 00 00 00 00 00 00 00 00 00 00 00 00 00
       0.0 0.0 0.0 0.0
000060 00 00 00 00 00 00 00 00 00 00 00 00 00 00 00 00
       0.0 0.0 0.0 0.0
000070 00 00 00 00 00 00 00 00 00 00 00 00 00 00 00 00
       0.0 0.0 0.0 0.0

sequential/dense/MatMul f4 [10, 1600]
000000 9c 78 5c bc f1 e4 79 3d ff 32 36 3d d8 20 10 bc
       -0.01345649 0.06100935 0.044482227 -0.008796893
000010 e8 26 8c bb f7 b4 10 3d 9a 4d c7 3c ee f5 df 3c
       -0.004277099 0.03532883 0.024328995 0.027338948
000020 39 2c 5e 3d 96 ae af bc fd 1c 42 3d 91 25 16 3d
       0.054241393 -0.021445554 0.047390927 0.03665692
000030 cc b5 6e bd fa dc ba 3c 6c 16 43 bc 68 a2 2d bc
       -0.058278844 0.022810448 -0.011907201 -0.010597803
000040 03 82 52 bd 88 1f 2f bc a9 df 21 bd ee 6b 78 bd
       -0.05139352 -0.01068867 -0.03951994 -0.060649805
000050 da 4f 21 bd af e7 5c 3d 94 3c 45 bc d8 8e 57 bd
       -0.039382793 0.05393189 -0.012038369 -0.05262646
000060 7e 37 e1 3c 2e cd 99 bc 6b b0 62 3d ac 4c 53 3c
       0.027492281 -0.018774595 0.055344027 0.012896698
000070 28 77 aa bc c9 bc 4e 3d 25 81 6f bd 80 57 bb bc
       -0.020808771 0.05047301 -0.05847277 -0.022868872
000080 78 03 bf 3b 75 49 13 3d 4f 37 6f 3d ff 68 57 bd
       0.005829271 0.035958726 0.058402356 -0.052590366
000090 38 7c 40 bd f2 49 ba 3c b2 ac a7 bc 1a f4 e9 bc
       -0.046993464 0.022740338 -0.02046809 -0.02855878
0000a0 d2 6a 41 bd 2b 9e 78 3d 5c 58 b8 bc 9a 14 2a bd
       -0.047221012 0.060697716 -0.02250307 -0.041523553
0000b0 37 c3 61 3d 56 42 ea 3c 5b 7c 15 3d 5f a1 2f 3d
       0.055117812 0.028596085 0.036495548 0.042878505
0000c0 54 30 2b bd 8e 69 9e bc a8 33 cd bc 8b ff 72 bd
       -0.041794136 -0.019337442 -0.025049046 -0.059325736
0000d0 49 c0 43 bd 17 37 31 3d d3 fb 58 3d 75 2e 72 bd
       -0.0477908 0.04326543 0.052974533 -0.059126336
0000e0 78 c2 be 3b a0 12 10 bc a0 f9 59 bc 8c e2 71 bc
       0.0058215223 -0.008793503 -0.013304144 -0.014763486
0000f0 64 a5 29 3c 79 5c 65 3d 58 f2 6c bd a8 83 d8 3b
       0.010354374 0.055996392 -0.057848305 0.0066074915
000100 3d e7 0b bd 59 5b 30 3d 34 b2 4b bc f9 2d 47 3d
       -0.034156073 0.043055866 -0.012432624 0.048627827
000110 89 2f 59 3d 38 d6 61 bd e3 fa 76 3d 4a f2 56 bd
       0.05302385 -0.055135936 0.060297858 -0.05247716
000120 c3 ec 3a bd aa b4 08 bd c3 ab 10 3d 80 08 cd ba
       -0.04563595 -0.03337542 0.035320055 -0.0015642792
000130 a2 5c ba 3c 12 a8 85 bc bf f3 74 3d f4 af cc bc
       0.022749249 -0.016315494 0.059802767 -0.024986245
000140 86 31 1f bd 6a a5 e7 3c fc 3a 45 bc 4c cc 78 3c
       -0.03886559 0.028277118 -0.012037989 0.015185427
000150 7e 11 f6 3c 05 a3 2f 3d 07 ad 15 bd 2b 91 73 3d
       0.030037638 0.042880077 -0.036541965 0.059464615
000160 ec f6 58 3c 9d 05 06 3d 20 42 27 bd da da e6 3c
       0.0132424645 0.032720197 -0.040834546 0.028180528
000170 f3 ae 6c 3d 0b 4f 10 3d 0c a1 14 bd 00 d3 5f bb
       0.057784032 0.03523163 -0.0362864 -0.0034152865
000180 73 42 4d 3d 0c cb 9b bc 81 52 6f 3d f4 64 76 bd
       0.0501122 -0.019017719 0.05842829 -0.06015487
000190 af ed 04 3d 3e 07 d6 3c 58 c3 5b bd b7 50 5e 3d
       0.032453235 0.0261265 -0.05365309 0.054276194
0001a0 69 ec 38 3d cd 6d 32 bd e6 90 fc 3c a1 3e 2e 3d
       0.045147333 -0.043561745 0.030830812 0.042540196
0001b0 fe 72 98 3c 56 01 06 bd 84 92 5d bc 33 f6 4a 3d
       0.01860952 -0.032716118 -0.013523702 0.0495512
0001c0 c9 13 11 3d f6 41 ad 3c e0 0c 53 bd 08 f4 a5 bc
       0.03541926 0.021149617 -0.05152595 -0.020257965
0001d0 1a e9 ba bc c1 46 45 bd 80 bf 74 ba 30 8e 80 bb
       -0.02281623 -0.04816318 -0.0009336397 -0.0039232
0001e0 2e 7e eb 3c 4c b2 2b bd 7b 8b 3e 3d 22 3b db 3c
       0.02874669 -0.041918084 0.046519738 0.026761595
0001f0 4a 35 57 bd 00 d2 cd 38 9c 72 43 bc bd 61 62 3d
       -0.052541055 9.814277e-05 -0.0119291805 0.05526899
000200 b0 e7 20 bb 71 a0 60 3d 90 ab 4d 3b 39 d7 17 3d
       -0.002455216 0.05484051 0.0031382777 0.037070487
000210 18 b3 23 bd 79 55 37 3d ca 3a 9c 3c 69 27 3a 3d
       -0.03996572 0.044759247 0.019071002 0.04544774
000220 95 1a 0b 3d 52 c6 db 3c 52 90 0f bd a2 20 e9 bc
       0.033960897 0.026827965 -0.035049744 -0.028457943
000230 59 b3 5b 3d 92 3d 67 bd 04 4e 05 bd 8a 90 98 3c
       0.053637836 -0.056455202 -0.032545105 0.01862361
000240 68 ff 3e bc 9c 19 24 bd ae a4 df bc ce c8 c8 3c
       -0.011657573 -0.040063486 -0.027300205 0.024509814
000250 47 61 1a 3d 18 96 cc 3b a6 d7 6e bd 6d 55 37 3d
       0.037690427 0.0062434785 -0.058311127 0.044759203
000260 fe 95 f0 3c 6a 26 20 bd da 7f ac 3c 9a a3 27 bd
       0.029368397 -0.039099135 0.021057058 -0.040927507
000270 58 da 0d bd a2 89 f3 3c 86 c5 97 bc 9a ae 89 bc
       -0.034632057 0.029728714 -0.018526804 -0.01680689
000280 08 98 0a bd fa 34 b2 3c 79 99 45 3d 2b 21 12 3d
       -0.033836395 0.021753777 0.048242066 0.035676163
000290 f2 d8 b5 3c 2f c1 16 3d 88 92 51 bc a3 c8 5d 3d
       0.022198174 0.036805328 -0.012791283 0.05414642
0002a0 59 fe 52 bd 7d a8 48 3d 24 63 2e bc ee 95 91 3c
       -0.051512096 0.048988808 -0.010643754 0.017771687
0002b0 56 c5 e1 3c ba 16 bf bc 2f de 42 bd 66 b9 9d bc
       0.027559917 -0.023326267 -0.047575172 -0.019253444
0002c0 41 11 08 3d df 09 02 bd 0f d8 56 3d 2c 4c 3c 3c
       0.03321958 -0.031747695 0.052452143 0.01149277
0002d0 6f fe 3b 3d 88 cb a0 bc 89 04 46 bd c0 0d 98 bb
       0.045896944 -0.019628301 -0.04834417 -0.004640311
0002e0 f2 91 d1 bc 77 18 46 bd eb d6 70 3d 1e 85 95 3c
       -0.025582287 -0.048363175 0.05879871 0.018251952
0002f0 3a 7f 96 bc 42 e9 01 bd e0 5b c0 bb 80 0f 6e bb
       -0.018371213 -0.031716593 -0.0058703274 -0.0036325157
000300 20 e4 e9 ba 6c 97 76 3c fe 1d 65 bd bc 31 5c bc
       -0.0017844476 0.01505075 -0.055936806 -0.013439592
000310 9d 45 33 3d bb 33 01 3d 6e cd 86 bc 05 ee 24 bd
       0.04376756 0.031543475 -0.016455378 -0.040266056
000320 bc 46 56 bc ca 88 2c bd a1 be 58 bd ee 01 60 bd
       -0.013078388 -0.04212264 -0.052916173 -0.05468934
000330 1a 00 83 bc a4 9c 54 bd 7e 90 53 bd fb 75 56 3d
       -0.01599126 -0.051907197 -0.05165147 0.05235861
000340 a9 24 42 3d 1c d1 7a 3c d0 d5 27 bd cc 04 0f 3c
       0.047398243 0.015308645 -0.040975392 0.008729171
000350 c0 46 d5 ba 17 7c 04 3d 00 54 d5 38 fe e7 20 bd
       -0.0016271695 0.032344904 0.00010172278 -0.039283745
000360 f9 d3 11 3d 6e 91 c0 bc 62 68 31 bd ff b0 66 3d
       0.035602544 -0.023506846 -0.043312438 0.05632114
000370 ac 16 53 3c 56 90 be 3c 74 d3 20 3c ea ab f1 3c
       0.012883823 0.023262184 0.009816039 0.02950092
000380 b8 81 af 3b e9 8b 3e 3d 4e 8f fa bc 54 d0 50 bc
       0.00535604 0.046520147 -0.030585911 -0.012744982
000390 e0 de e2 3a fc 8b 5d 3c 34 7b 82 bc fd 41 72 3d
       0.0017308854 0.013522144 -0.015927888 0.059144963
0003a0 de ff 17 bd 28 51 d6 3b a4 8d 55 bd c3 13 52 3d
       -0.03710925 0.0065404363 -0.052137032 0.051288377
0003b0 74 e7 59 bd 86 77 2f bd 24 6f 64 bd d4 2a 56 bc
       -0.053199247 -0.042838596 -0.055770054 -0.013071734
0003c0 94 2d 87 bc 44 af 72 bd 82 78 8d 3c a8 91 e2 3b
       -0.016501226 -0.059249178 0.017269377 0.0069143362
0003d0 22 ab 68 bd 78 63 8d 3b 9c 7f c0 bc 83 98 42 bd
       -0.05680383 0.004314836 -0.023498349 -0.047508728
0003e0 d5 a6 17 3d a4 01 7b 3c b7 d9 09 3d 1e 18 11 bd
       0.037024338 0.015320215 0.033654895 -0.03542339
0003f0 7d e8 5a 3d f8 7d ea 3b 80 1e 07 3a d5 3d 3b 3d
       0.053444374 0.00715613 0.0005154386 0.045713264

sequential/conv2d/Conv2D1 f4 [32, 3, 3, 1]
000000 a0 80 cc 3d 41 7d 10 3e 60 ef 79 3c 22 45 8f bd
       0.09985471 0.1411028 0.015254825 -0.06995608
000010 4c c7 bf bd 38 8b 9f 3d 84 07 00 be 4f c5 96 bd
       -0.09364185 0.07790226 -0.12502867 -0.073618524
000020 b6 34 07 bd c8 c7 b3 3c 34 13 1c bd f0 04 d0 3d
       -0.033009253 0.021945849 -0.03810425 0.10157192
000030 40 f9 12 bc 36 8c f2 3d 15 67 0b be 70 71 08 be
       -0.008970559 0.11843149 -0.13613541 -0.13324523
000040 6c cf b5 bc 56 0c bb 3d 0d e1 0b 3e 8b 99 09 3e
       -0.022193633 0.09133212 0.13660069 0.13437478
000050 bb 9b ee bd a3 89 b5 bd 00 e4 d2 3a 80 11 a0 bd
       -0.11650797 -0.08864143 0.0016089678 -0.07815838
000060 32 38 b8 3d 30 7e 12 bd f8 83 97 bc 56 b9 e3 3d
       0.089950934 -0.035764873 -0.018495545 0.111193344
000070 1e 63 ce bd e3 3e 0d 3e e4 35 d3 3d 56 47 d3 3d
       -0.10077499 0.1379352 0.10313013 0.103163406
000080 3b 01 05 be ba 16 d3 bd 12 a0 49 bd b5 a9 0b be
       -0.1298875 -0.10307069 -0.04922492 -0.13638957
000090 24 e0 51 3d 76 dc 03 be 43 9a 08 3e c8 56 18 bd
       0.051239148 -0.12877068 0.13340096 -0.037192136
0000a0 38 36 96 3c 0b 36 0e 3e ea 12 01 bd af 44 9e bd
       0.0183364 0.13887803 -0.03151218 -0.07727944
0000b0 05 58 07 3e f0 36 ed bd 66 8f ea bd 34 94 83 3d
       0.1321717 -0.11582744 -0.11453132 0.06424752
0000c0 80 a7 c6 bd 79 37 0d 3e a0 f1 86 3d d0 86 89 3d
       -0.09699917 0.13790692 0.06589055 0.067151666
0000d0 74 78 21 3d d5 38 0e 3e fd a5 06 3e 40 fb 43 bc
       0.039421514 0.13888867 0.13149257 -0.011961758
0000e0 e9 4e 08 3e 82 01 b2 bd 02 0c 60 bd c8 20 a2 bc
       0.13311352 -0.08691694 -0.05469895 -0.019791022
0000f0 a4 8f 4c bd 3a 27 08 be 5e c4 af 3d 6c c5 b8 bd
       -0.049941674 -0.13296214 0.08582376 -0.0902203
000100 3c 9e 05 be 49 b5 c8 bd 96 44 c1 bd 42 af a7 bd
       -0.13048643 -0.098002024 -0.0943691 -0.08187725
000110 14 17 37 bd 60 34 49 3d c2 9b 4a bd ca ba ee 3d
       -0.044699743 0.049122214 -0.04946495 0.11656721
000120 80 c2 8e 3a bf 20 0c 3e 36 37 6f bd 60 7d 61 bc
       0.0010891706 0.13684367 -0.058402263 -0.013762802
000130 e0 a5 ea bc ee e7 f3 3d 7e f6 f4 3d a2 5f 05 bd
       -0.028643548 0.119094715 0.11961077 -0.032561906
000140 38 52 ae bd 40 c7 cf 3d e0 2a af bb a0 42 94 bc
       -0.08511776 0.10145426 -0.0053456873 -0.018098176
000150 84 06 cc 3d b8 16 90 3c 64 a5 22 3d b4 9a 32 3d
       0.0996218 0.017588958 0.03970851 0.043604568
000160 9e 1f c2 3d 5a 3a bb 3d b1 bd ca bd 97 15 01 be
       0.09478687 0.09141989 -0.09899462 -0.12605892
000170 a0 97 b0 bb dc 9e 09 be e0 67 a7 bb e6 2a e3 3d
       -0.005389169 -0.13439506 -0.0051088184 0.110921666
000180 e4 66 da bc 3c c1 03 be f2 a1 09 bd 10 3e 8b 3d
       -0.02666039 -0.12866682 -0.03360171 0.06798947
000190 52 d1 e6 3d ec 3d 5a 3d 4c 5c df bc 08 4b 6b 3d
       0.112703934 0.05328171 -0.02726569 0.057444602
0001a0 90 fe 3e 3d 80 60 cf ba a4 60 5a bd e0 06 24 bd
       0.04662949 -0.0015821606 -0.05331482 -0.04004562
0001b0 80 9e b8 ba 7c 4a d9 bc 28 5a 08 be fa 8e c4 bd
       -0.0014085323 -0.026524775 -0.13315642 -0.09597583
0001c0 a4 d4 92 bc a8 79 b5 3c 8c c9 6c bd e4 98 19 3d
       -0.01792366 0.022152737 -0.057809398 0.037499323
0001d0 a0 2c a8 3b 00 11 8a bb ab 50 94 bd 56 b8 c0 3d
       0.005132273 -0.0042134523 -0.07241949 0.09410159
0001e0 83 b6 10 be ec 4e 08 bd 78 e7 ba 3d be 80 da 3d
       -0.14132123 -0.03327839 0.091261804 0.10669087
0001f0 ae c7 bb 3d 97 bc 0a 3e 87 25 07 3e 90 1a 97 3c
       0.09168945 0.13548504 0.1319791 0.018445283
000200 44 4d 11 3d 14 16 59 3d 3f 42 9a bd c0 30 9d 3d
       0.035474077 0.05299957 -0.07532167 0.07675314
000210 74 08 79 3d 2f 7f 0c be a8 e8 39 3d 38 26 93 bc
       0.060799077 -0.13720392 0.045387894 -0.01796256
000220 b8 8a fc 3c 20 e0 21 bc bd 73 0b 3e 58 80 a7 bc
       0.030827865 -0.009880096 0.1361837 -0.020446941
000230 5d 2e 0d be 28 60 96 3c 10 42 39 3c e0 0e a6 bc
       -0.13787217 0.018356398 0.011307254 -0.020270765
000240 c6 00 98 bd 94 74 c4 bd 31 2d 97 bd 22 74 98 bd
       -0.074220225 -0.09592548 -0.073816665 -0.074440256
000250 17 6f c9 bd fb 8f cf bd f5 e2 91 bd 8e 5d 2e bd
       -0.09835642 -0.10134884 -0.07123367 -0.04256969
000260 68 23 5b 3d d2 56 dd 3d 18 82 c6 3c 88 9d c8 3d
       0.053500563 0.10807575 0.024231955 0.09795672
000270 15 79 0c 3e 24 8d 55 bd 1e 3c fd 3d 51 51 b6 bd
       0.13718064 -0.052136555 0.12364982 -0.089022286
000280 60 20 7e 3c 9e 54 e7 3d ff 56 82 bd e1 18 05 3e
       0.0155106485 0.11295436 -0.063642494 0.12997772
000290 ae ac fe 3d 40 36 80 3d 46 55 f3 bd 30 80 da 3c
       0.1243528 0.06260347 -0.11881499 0.026672453
0002a0 7f 12 e6 bd 7e e1 88 3d 8e 27 90 3d 98 6e 0e be
       -0.112339966 0.06683634 0.070387945 -0.13909376
0002b0 1c d2 0b be 74 7e 43 bd 6a 5a 63 bd d8 d1 db 3c
       -0.13654369 -0.047728017 -0.055506147 0.02683346
0002c0 57 05 0f 3e bc 96 ce bd f2 07 01 be 48 7c a1 3d
       0.1396688 -0.10087344 -0.12600687 0.07885033
0002d0 94 d4 ca 3d ac 00 49 3d 3c 6c 9f bd 46 46 da bd
       0.09903827 0.049072906 -0.07784316 -0.10657935
0002e0 38 62 7f 3d 9e b3 dd bd d8 a5 94 bd 48 7c a8 bd
       0.062349528 -0.10825275 -0.07258195 -0.0822683
0002f0 96 9d 99 3d 32 34 ce 3d 4b d9 d6 bd 51 2a 05 3e
       0.0750076 0.10068549 -0.10490664 0.13004424
000300 28 08 d3 bd a7 5d 8d bd 00 16 1d ba 40 20 4a bc
       -0.1030429 -0.069026284 -0.0005992353 -0.012336791
000310 28 8c 7a 3d 80 af 8e ba c4 2d b7 3d 4a a7 a2 3d
       0.06116882 -0.0010886043 0.08944276 0.07942064
000320 87 ca d5 bd c0 63 ae bd 68 93 0f be c9 b7 05 be
       -0.1043902 -0.085151196 -0.14021075 -0.1305839
000330 b1 af 03 3e c0 23 a1 3b fc ae 8d 3d 6c 08 29 3d
       0.1285999 0.004917592 0.06918141 0.041267797
000340 2a ec 00 be 80 7e 36 bd e0 c5 25 bc 1a 8c c8 3d
       -0.1259009 -0.044554234 -0.010117978 0.09792347
000350 c0 70 3e 3d 32 fc c9 bd 1e d3 06 be 9e 0b 87 3d
       0.046494246 -0.098625556 -0.13166472 0.06594013
000360 53 7b 03 3e 2d 70 10 3e d0 4d 98 bd dc f9 93 3d
       0.12840013 0.14105292 -0.074367166 0.07225391
000370 2c 30 a8 3d 2a 9e ea bd b4 d1 d2 3d 40 fd 43 bc
       0.08212313 -0.11455949 0.10293904 -0.011962235
000380 ce fa 76 bd e8 7a 9c 3d 00 b5 b0 3a 80 88 5a bb
       -0.06029778 0.0764063 0.0013481677 -0.003334552
000390 28 94 a1 bd f0 05 6a 3d fa b6 e9 3d 40 63 a7 3d
       -0.07889587 0.05713457 0.11411853 0.08173227
0003a0 50 50 1d 3c 60 a7 81 3d 80 fa 66 bc 3e 64 38 bd
       0.0096016675 0.063307524 -0.01409781 -0.045017473
0003b0 22 e8 02 bd 78 56 89 3d f6 4c f3 3d d2 2d 6b bd
       -0.03195966 0.06705946 0.118799135 -0.057416745
0003c0 ae 52 c6 bd 9a 3f 19 bd e2 15 ed 3d 76 fa a1 3d
       -0.09683739 -0.03741417 0.115764394 0.079091
0003d0 40 b3 fd bd 99 5a 09 3e 36 0f d1 bd 97 af fe bd
       -0.12387705 0.13413467 -0.102079794 -0.12435835
0003e0 e8 26 c3 bc a4 eb 7a 3d 64 d9 cc bd 22 32 06 be
       -0.023822263 0.06125988 -0.100024015 -0.13105062
0003f0 c2 9d ee bd 16 8d fd bd 72 23 bb 3d 97 1f 0c 3e
       -0.11651184 -0.12380426 0.0913762 0.13683926

sequential/conv2d_1/Conv2D1 f4 [64, 3, 3, 32]
000000 58 39 72 bc 4c 58 fe 3c 66 4a 33 3d 2b a8 2e bd
       -0.01478418 0.031047963 0.043772124 -0.042640846
000010 60 45 e7 bc 74 84 a2 bc 7a 06 76 3d 00 3b 09 bd
       -0.028231323 -0.01983855 0.06006477 -0.033503532
000020 60 4a e1 3c c0 1a 7c bd 31 3c 8a 3d a0 27 24 3b
       0.027501285 -0.06154895 0.06749762 0.0025048032
000030 d8 84 55 bc c0 ab f2 bc cc 6c 83 bc d4 cd e8 3c
       -0.013032161 -0.029622912 -0.01604309 0.028418459
000040 a0 d0 82 bd 4b 6d 48 bd f0 f3 0e bd 9a 86 0f 3d
       -0.06387448 -0.048932355 -0.034900606 0.035040475
000050 31 96 8c 3d 38 d7 a4 bd e2 8c 4a 3d 6c 64 c2 bc
       0.06864584 -0.08048862 0.049450763 -0.023729526
000060 60 93 9a 3c db 10 44 bd 80 cd 77 bd 56 a6 19 bd
       0.018869102 -0.047867637 -0.060498714 -0.037512146
000070 63 b4 9b 3d 40 a0 76 bd 9b a0 31 bd 50 c3 15 3d
       0.076027654 -0.06021142 -0.043366056 0.036563218
000080 03 de 80 3d 36 bb fd bc 32 ad 33 3d fb 62 75 bd
       0.062923454 -0.030973058 0.043866344 -0.05990885
000090 c0 4a 3e 3c c0 36 93 ba ab 32 3c bd f9 03 94 3d
       0.0116145015 -0.0011231527 -0.04594676 0.0722732
0000a0 4c 7f b1 bc aa f1 3a 3d b1 82 96 3d 60 91 37 bb
       -0.021667145 0.045640625 0.07349146 -0.0028010234
0000b0 2c d9 ce 3c 4c 01 88 3c 01 20 82 3d 96 88 0e bd
       0.02525004 0.01660218 0.063537605 -0.034798227
0000c0 15 fb 8a 3d f0 e3 a1 bd fa 2b 27 3d 10 5c 99 bd
       0.06786171 -0.07904804 0.040813424 -0.07488263
0000d0 5a c0 25 3d 15 3d a4 3d d6 4a 03 3d 28 b9 79 3c
       0.040466644 0.08019463 0.03205379 0.015241899
0000e0 0c f0 88 3c 80 2d bc 3b 9a b4 71 3d 70 00 49 bd
       0.016716026 0.0057427287 0.059010126 -0.049072683
0000f0 96 18 73 3d 7b 9a 4c bd 70 af 7b bd 31 2c 9a 3d
       0.05934962 -0.04995201 -0.061446607 0.0752796
000100 4a f7 2b 3d 52 91 4d 3d 74 9d c4 3c 40 68 f8 bc
       0.04198388 0.050187416 0.02400086 -0.030323148
000110 a3 0c 9a 3d ed 7b 87 3d 56 25 01 3d c6 8e 9e bd
       0.075219415 0.06615434 0.031529747 -0.077420756
000120 c0 8a a7 bd c3 61 a3 3d 40 22 64 3c 01 fc 84 3d
       -0.08180761 0.07977631 0.013924181 0.064933784
000130 20 a4 e8 bc 00 87 8a bb 00 af 6e bb 30 b0 11 bd
       -0.028398573 -0.004227519 -0.0036420226 -0.035568416
000140 fb a9 45 bd a6 1d 28 bd 98 6a 5b bc eb 77 51 bd
       -0.04825781 -0.0410439 -0.013392113 -0.051139753
000150 66 b3 72 bd 74 b8 88 3c 6c 85 e8 bc 00 85 e9 b9
       -0.05925312 0.016689517 -0.028383933 -0.00044540316
000160 f2 68 41 3d e0 b0 a8 bd c0 48 34 3c 40 8b 1e bc
       0.047219224 -0.08236861 0.011003673 -0.0096767545
000170 eb 0e 72 bd fa 58 23 3d 14 af a9 3c 9b eb 5c bd
       -0.059096258 0.039879777 0.020713367 -0.05393563
000180 51 3c a4 3d cb 2e 9f bd 50 1f a1 bb 34 2f cf 3c
       0.08019317 -0.07772597 -0.004917063 0.025291063
000190 ae 7c 9b bd 6b 21 95 3d 26 a9 5b bd 39 35 a7 3d
       -0.0759214 0.072817646 -0.05362811 0.08164448
0001a0 be 52 8b bd a0 11 51 3b 50 36 bc bb 5b d3 16 bd
       -0.06802891 0.0031901374 -0.0057437792 -0.036822658
0001b0 ec 37 fd 3c 0c 29 e0 bc 14 db b1 3c eb 86 09 bd
       0.030910455 -0.027363323 0.02171091 -0.033575933
0001c0 8c df e2 bc 98 66 80 bd 9e 3c 87 bd 65 2c a1 3d
       -0.027694486 -0.06269568 -0.06603359 0.07869796
0001d0 54 dd e9 3c 30 e5 c6 3b 50 3b 08 3d 56 63 33 bd
       0.02854792 0.0060698017 0.03325969 -0.043795906
0001e0 e5 a8 9c 3d c0 94 80 ba 96 4e e4 bc 23 e3 94 3d
       0.076494016 -0.0009809956 -0.027869504 0.072698854
0001f0 a6 7e 0e bd 3b cd 04 bd b6 75 1f bd e8 ae 2b bc
       -0.03478875 -0.032422286 -0.038930617 -0.010478713
000200 d2 9c 5a 3d 7b d2 0a bd 68 05 6e 3c 80 71 09 bc
       0.05337221 -0.033892136 0.014527656 -0.008388877
000210 28 96 83 bd 33 6d 82 3d 30 37 0c 3d b0 60 d5 3b
       -0.064251244 0.06368484 0.03423232 0.00651177
000220 53 b2 98 3d ad 32 82 3d c0 96 ce bc 26 2a 79 3d
       0.07455888 0.06357322 -0.025218368 0.06083121
000230 2b 96 8b 3d 58 cb 30 3c 90 cb 43 bd 08 82 8c bd
       0.06815752 0.010790668 -0.047801554 -0.06860739
000240 74 6d a1 bc bd 8b 98 3d 50 2b 8c bb 02 3c 7e 3d
       -0.019705512 0.07448528 -0.004277624 0.062068947
000250 3b b5 8f 3d bb a5 5b bd c0 85 bd bc e0 f0 ca 3c
       0.07016989 -0.05362485 -0.023135066 0.024773061
000260 80 74 bf 3b 43 24 a6 3d 20 c0 1e bd a1 ec 96 3d
       0.0058427453 0.08112385 -0.038757443 0.07369352
000270 93 d7 94 bd f5 72 8c 3d fb 8f 09 bd 1b 58 80 bd
       -0.0726768 0.06857864 -0.033584576 -0.06266805
000280 5b 81 05 bd b6 f1 54 3d a3 c0 93 3d c0 a6 ca bc
       -0.032594066 0.051988326 0.07214477 -0.024737716
000290 00 91 18 bd c0 a5 0c 3c 76 79 8d bd 41 05 86 3d
       -0.037247658 0.00858444 -0.069079325 0.06543971
0002a0 98 24 43 bc 7b bb 02 bd f3 df 91 3d 20 af 0a 3d
       -0.01191058 -0.031917077 0.07122793 0.03385842
0002b0 06 72 4d bd 05 93 9e 3d 95 43 a5 3d 36 9c 03 bd
       -0.05015757 0.077428855 0.08069531 -0.032131396
0002c0 f8 5c 96 bd d0 d8 e7 3b 0c 54 93 bc 8c 23 9d bc
       -0.07341951 0.0070754066 -0.017984413 -0.01918199
0002d0 b0 09 0e bd a8 76 2f 3c 1a 0d 66 3d a0 f2 37 3b
       -0.034677207 0.010709442 0.05616484 0.00280682
0002e0 e6 aa 6e bd 95 d4 92 3d 66 84 35 3d 4c 47 db bc
       -0.05826845 0.07169453 0.044315718 -0.026767395
0002f0 0b 10 93 bd 86 1a 29 bd 36 fa 2d bd c0 c3 79 bd
       -0.07180794 -0.04128506 -0.042474948 -0.060977697
000300 fa 45 74 3d bb 70 71 bd c3 68 98 bd 18 fb 69 bc
       0.059637047 -0.0589454 -0.07441857 -0.014281057
000310 28 f2 08 3c 66 92 18 3d 66 9f 1c 3d 50 a9 81 3b
       0.008358516 0.03724899 0.03823795 0.003956951
000320 33 55 89 3d d3 24 a2 bd 72 63 54 3d 18 93 18 3c
       0.067057036 -0.0791718 0.05185265 0.009312414
000330 f0 0f 19 3d a8 d1 5b bc 2c 6e ca bc 80 7d 7f 3c
       0.037368715 -0.013416685 -0.024710737 0.015593886
000340 50 91 9e bb c0 7c 39 bc 00 0e 13 3c a0 63 79 bb
       -0.0048391 -0.011321247 0.008975506 -0.0038053766
000350 fa 7b 5f 3d eb 75 12 bd 9b ce 44 bd 16 6f 56 bd
       0.054561593 -0.035756987 -0.048048597 -0.052352034
000360 4a 9b 30 3d 80 5c 1b bc 00 7c f7 bb 1a 62 35 3d
       0.043116845 -0.009482503 -0.0075526237 0.04428301
000370 46 56 6c 3d 50 b3 48 bd 16 0b bf bc dd f1 94 3d
       0.057699464 -0.04899913 -0.023320716 0.07272694
000380 db 31 1e bd e2 2b 32 3d 30 b5 30 bd 98 03 73 3c
       -0.038621765 0.04349888 -0.043141544 0.0148324
000390 32 b7 39 3d 00 4e 26 3d 46 a9 7b bd 7b 90 5d bd
       0.045340724 0.04060173 -0.06144073 -0.054092865
0003a0 31 d1 91 3d 88 5c 8f bd 9a fe 5f 3d 63 b3 95 3d
       0.07119978 -0.07000071 0.054686166 0.07309606
0003b0 3b 4f a9 bd f0 94 a5 bd ac 60 f7 3c f0 8a 0f bd
       -0.08267065 -0.08085048 0.030197464 -0.03504461
0003c0 c6 56 78 bd a0 5c 19 3d 10 35 13 bd e6 4f 1a bd
       -0.06062963 0.03744185 -0.035939276 -0.037673853
0003d0 26 61 70 3d f4 38 9d bc cb d3 9f 3d a3 b5 80 3d
       0.058686398 -0.019192196 0.07804068 0.062846445
0003e0 9d 25 82 3d 12 b9 50 3d 36 5f 53 3d a1 5b 82 3d
       0.063548304 0.050957747 0.051604472 0.06365133
0003f0 55 f7 87 3d 4c f9 da bc cb bf 12 bd 93 7b 8a bd
       0.06638972 -0.026730202 -0.03582744 -0.06761851
